Model/trained_arima_dl_model.pt (torch, 179871 bytes, 7 tensors)

encoder.0.weight f4 [64, 600]
0	0xbd4628d3	-0.048378777
1	0xbdd4e6c5	-0.10395578
2	0xbdfa41c3	-0.12219574
3	0xbd85b6c7	-0.06529003
4	0x3d64ed21	0.055890206
5	0xbdee19cc	-0.11626014
6	0xbd97e096	-0.07415883
7	0x3cac712f	0.021050064
8	0xbc85cc56	-0.016332787
9	0xbbe7b129	-0.0070706797
10	0x3c2356e1	0.009969444
11	0xbdfa0fa4	-0.122100145
12	0xbdda24aa	-0.10651524
13	0xbce307a0	-0.027713597
14	0x3c96cdaf	0.018408624
15	0x3c2c42ca	0.010513971
16	0x3c777bc4	0.015105192
17	0xbe2a11d9	-0.16608371
18	0x3c43213d	0.01190978
19	0xbdf2508a	-0.11831768
20	0xbdc6e577	-0.09711736
21	0xbd875300	-0.06607628
22	0xbdfc5a6d	-0.12321935
23	0xbdad8a20	-0.08473611
24	0xbd281f7a	-0.041045643
25	0xbdd68eba	-0.10476442
26	0xbd2ec82f	-0.04267138
27	0x3cba035e	0.022706684
28	0x3d1b4421	0.03790677
29	0x3cf331f9	0.029686915
30	0x3d19c0d1	0.0375374
31	0xbdb52f9a	-0.0884697
32	0xbdc70a05	-0.09718708
33	0x3d2ba8a1	0.041908864
34	0xbae006a3	-0.0017091822
35	0x3c35cc84	0.011096124
36	0xbd0cf895	-0.034416754
37	0x3baa4f93	0.0051974743
38	0x3a933779	0.0011231742
39	0xbd6860ea	-0.05673305
40	0xbd6cadda	-0.057782985
41	0xbdf597c5	-0.11991838
42	0xbdc6e5df	-0.09711813
43	0xbdf3d185	-0.11905197
44	0x3d22a5bb	0.039708834
45	0xbd379236	-0.044817172
46	0xbdbe48be	-0.09291218
47	0xbafceecd	-0.0019297242
48	0x3cdcb4fa	0.026941765
49	0xbcfb31c4	-0.030663379
50	0x3c28d508	0.010304697
51	0xbdc8fb52	-0.098135605
52	0xbdd0b876	-0.10191433
53	0xbd03fb3a	-0.03222201
54	0xbcdfc09f	-0.027313529
55	0x3d2c02b8	0.04199478
56	0xbcde7e81	-0.027159931
57	0xbd9e848a	-0.077401236
58	0x3c156e54	0.009120543
59	0xbd21ebe6	-0.03953161
60	0xbde71834	-0.11283913
61	0xbd531926	-0.051537655
62	0xbd853af6	-0.065053865
63	0xbd9adebd	-0.07562015
64	0x3c363948	0.011122055
65	0xbd81eb54	-0.063437134
66	0xbd6a1c70	-0.057156026
67	0xbcb04772	-0.021518443
68	0xbd135b6f	-0.03597587
69	0x3c31da38	0.01085525
70	0xbc7925f2	-0.015206801
71	0xbdcb709d	-0.09933589
72	0xbde47e8e	-0.11156951
73	0x3ca92dfe	0.020651814
74	0x3d0823fd	0.033237446
75	0xbd00d258	-0.0314506
76	0xbc2aab43	-0.010416809
77	0x3d7ae357	0.061251964
78	0x3d02d2c7	0.031939294
79	0x3b4b8ddd	0.00310599
80	0xbd96efc2	-0.07369949
81	0xbdd849e1	-0.10560966
82	0xbd936cb6	-0.07198469
83	0xbda8368d	-0.0821353
84	0x3cea97b8	0.028636798
85	0xbda98c3c	-0.08278701
86	0xbd6c45ef	-0.05768388
87	0x3bbd6c2a	0.0057807164
88	0xbc84965d	-0.01618498
89	0x3c4bc63f	0.012437402
90	0x3d281739	0.04103777
91	0xbdb34379	-0.08753104
92	0xbde759e6	-0.11296444
93	0xbc4d8197	-0.012543104
94	0x38d3a1c3	0.000100913945
95	0xbc88dd54	-0.0167071
96	0x3bade524	0.0053068567
97	0x3d3be8a3	0.045876157
98	0xbd289ab1	-0.04116315
99	0x3d03f3ba	0.032214858
100	0xbdb63ac2	-0.08897926
101	0xbdd38f05	-0.10330013
102	0xbdc5da7d	-0.09660814
103	0xbdb84651	-0.08997787
104	0x3c749c51	0.014929847
105	0xbdd4a1a6	-0.103823945
106	0xbde431b7	-0.11142295
107	0x3d02fa90	0.031977236
108	0x3c4bd3a7	0.012440599
109	0x3cd52194	0.026016988
110	0x3cd03cf6	0.025419693
111	0xbd8d957a	-0.06913276
112	0xbd6941c8	-0.0569475
113	0x3cf28031	0.029602142
114	0x3b1d40cf	0.0023994928
115	0xbce4032c	-0.027833544
116	0xbc551f64	-0.013007972
117	0x3d413c11	0.047176424
118	0xbd094ea3	-0.03352226
119	0x3d1b9659	0.03798518
120	0xbdc42d59	-0.09578962
121	0xbda81740	-0.082075596
122	0xbd95838b	-0.073004805
123	0xbde1c42f	-0.11023747
124	0xb9a64476	-0.00031712995
125	0xbd9684be	-0.07349537
126	0xbd8058ef	-0.06266963
127	0xbc584f50	-0.013202503
128	0x3cd9d5a0	0.026591122
129	0x3c49911d	0.012302664
130	0x3c3f6a25	0.011683022
131	0xbd553ccc	-0.052059934
132	0xbded3f40	-0.115843296
133	0x3ccfb218	0.025353476
134	0xbc0b341f	-0.008496313
135	0xbd52b329	-0.05144039
136	0xbc6ef8bb	-0.014585669
137	0xbd29c628	-0.041448742
138	0xbc33027b	-0.010925884
139	0xbd09639e	-0.033542268
140	0xbde6f2e6	-0.11276798
141	0xbddfbe5b	-0.10924979
142	0xbda5e3c6	-0.08100085
143	0xbdd6c532	-0.10486831
144	0x3d149958	0.036279052
145	0xbdf55b74	-0.11980334
146	0xbd3e7e3a	-0.046507098
147	0xbc610d69	-0.013736107
148	0xbd11653d	-0.03549694
149	0xbc1a7a9e	-0.009428648
150	0xbc81379b	-0.015773585
151	0xbd620834	-0.055183604
152	0xbde4c79f	-0.11170887
153	0x3d0ea111	0.034821574
154	0xb8869b02	-6.4184904e-05
155	0xbc38570b	-0.011251221
156	0x3cf488ef	0.029850451
157	0xbc81f352	-0.015863094
158	0x3c8da50b	0.017290613
159	0xbd3460d5	-0.04403766
160	0xbdc0b557	-0.09409588
161	0xbd697f07	-0.05700591
162	0xbdfae941	-0.12251521
163	0xbd6b4234	-0.057436183
164	0x3d801d7d	0.062556244
165	0xbd7ee17f	-0.06222677
166	0xbd7f7f3d	-0.062377203
167	0x3cdaf9cd	0.026730442
168	0xbb0b899a	-0.0021291734
169	0x3c21aec5	0.009868328
170	0x3cac6c7a	0.02104782
171	0xbdfa4971	-0.12221039
172	0xbd9d5c2c	-0.07683596
173	0x3d1f8583	0.038945686
174	0x3c5368b8	0.012903385
175	0x3cb0c2bb	0.02157723
176	0xbd625cd1	-0.055264298
177	0xbd2f2fc1	-0.04277015
178	0x3c253ca7	0.010085261
179	0xbd3e79c3	-0.04650284
180	0xbd937d42	-0.072016254
181	0xbdc70f31	-0.097196944
182	0xbdbf9a54	-0.09355608
183	0xbd630104	-0.05542089
184	0x3cd454d2	0.025919352
185	0xbdc555e0	-0.0963552
186	0xbdc0d9ac	-0.094165176
187	0xbb8372f6	-0.004011507
188	0xbcde38c0	-0.02712667
189	0x3d2484d2	0.04016573
190	0x3cb1b22d	0.021691406
191	0xbdb750bd	-0.089509465
192	0xbdb4b8f7	-0.08824342
193	0x3d398d14	0.04530056
194	0xbcb18a0b	-0.02167227
195	0xba4ce982	-0.0007816778
196	0xbca7cf83	-0.020484691
197	0xbd7498b0	-0.059715927
198	0x3b19447e	0.0023386772
199	0xbd16b079	-0.03678939
200	0xbdef39e7	-0.11680966
201	0xbdf703f7	-0.12061303
202	0xbd8f8686	-0.0700808
203	0xbdb14b86	-0.08656983
204	0x3d34d437	0.044147696
205	0xbd5f56e9	-0.054526243
206	0xbdfbfce1	-0.12304092
207	0xbc07b895	-0.008283754
208	0xbb93b7c4	-0.0045079906
209	0xbc469404	-0.012120251
210	0xbb7787ca	-0.0037770146
211	0xbde5610d	-0.112001516
212	0xbd552f1a	-0.052046873
213	0x3afa2983	0.0019085858
214	0x3b8b9a40	0.0042603314
215	0x3b6ffe3f	0.0036620048
216	0xbbe30756	-0.0069283647
217	0xbc4ee6fd	-0.012628314
218	0x3b8ff372	0.0043930346
219	0xbc331f84	-0.010932807
220	0xbd6c0662	-0.057623275
221	0xbde855fe	-0.11344527
222	0xbe00c2e8	-0.12574351
223	0xbdc8f2cc	-0.09811935
224	0x3d10efd3	0.035384964
225	0xbdd5936b	-0.10428508
226	0xbde64b44	-0.112448245
227	0xbc4fb237	-0.012676767
228	0x3cf96ab6	0.030446392
229	0x3d352ffb	0.04423521
230	0x3cd06693	0.025439536
231	0xbda0a3aa	-0.078437164
232	0xbdd2e0bb	-0.1029677
233	0xbbc50010	-0.0060119703
234	0x3c18fa6f	0.009337052
235	0xbbe0d602	-0.006861449
236	0xbc4cdfcc	-0.012504529
237	0xbd894164	-0.067019254
238	0xbbe079ce	-0.0068504578
239	0xbd38bd1a	-0.045102216
240	0xbdc03964	-0.093859464
241	0xbd8f7bab	-0.0700601
242	0xbdb3ae27	-0.08773451
243	0xbded7a9e	-0.11595653
244	0x3cace187	0.021103634
245	0xbdb71329	-0.089392014
246	0xbddf6ec0	-0.10909796
247	0x3cef354e	0.029200222
248	0x3c9d7868	0.019222453
249	0xbbaff3f8	-0.0053696595
250	0xbc84d8da	-0.016216684
251	0xbd89ec46	-0.06734519
252	0xbd5af04b	-0.053451817
253	0x3c0c9322	0.008580001
254	0x3cec9cb2	0.028883312
255	0xbc9032bf	-0.017602323

encoder.0.bias f4 [64]
0	0x3cedd0d7	0.029030247
1	0xba697083	-0.000890501
2	0x3c69fee4	0.014281962
3	0x3b08fed9	0.0020903854
4	0x3c760edf	0.015018194
5	0xbd234f82	-0.039870746
6	0x3cf4aa0f	0.029866247
7	0xbd1d57fd	-0.03841399
8	0xbcf47987	-0.029843105
9	0xbd26f31c	-0.04075919
10	0x3c355beb	0.011069278
11	0x3abd9113	0.0014462791
12	0x3c49b999	0.012312316
13	0xbc666dad	-0.014064235
14	0x3cff0a23	0.031132763
15	0x3cb8a3cf	0.022539048
16	0xbc6e9857	-0.014562688
17	0x3ce7927b	0.02826809
18	0xbd329ed1	-0.04360849
19	0xbd04b7ce	-0.032401852
20	0x3c3f0e1c	0.011661079
21	0xbdab66fb	-0.08369251
22	0x3c17f520	0.009274751
23	0x3c9f5714	0.019450702
24	0xbd66ecbc	-0.05637811
25	0x3c6ca1b9	0.014442855
26	0xbcce41bc	-0.025177829
27	0x3cac1961	0.021008195
28	0xbcd94148	-0.026520386
29	0x3cc94b46	0.024572026
30	0xbcd0e8c7	-0.025501622
31	0x3cd8207c	0.026382677
32	0x39ae824b	0.00033284942
33	0x3c917862	0.017757598
34	0xbb9c6202	-0.0047724256
35	0xbce92c8f	-0.02846363
36	0xbcc61e8e	-0.024184491
37	0x3d157be4	0.036495104
38	0x3baa5f3c	0.005199341
39	0xbd0bfee3	-0.034178626
40	0xbc94d1e2	-0.018166486
41	0xbcf97de8	-0.030455545
42	0x3cfa0a6d	0.03052255
43	0xbd302e85	-0.043013114
44	0x3aff29fb	0.0019467467
45	0xbce2cbe4	-0.027685113
46	0x3bf42ac0	0.0074513853
47	0x3c9ce1f5	0.019150713
48	0xbcfa707f	-0.03057122
49	0xbb09bb91	-0.002101634
50	0x3bafa4bd	0.0053602145
51	0xbb910638	-0.00442579
52	0xbd2190b5	-0.039444644
53	0x3d0d9fa1	0.034576062
54	0xbbcad4fb	-0.00618994
55	0xbbf33ee6	-0.0074232696
56	0x3b53fdf1	0.0032347406
57	0xb964a280	-0.0002180431
58	0x3d05de55	0.032682735
59	0xbcf181ac	-0.029480778
60	0xbc0c7856	-0.008573612
61	0x3cfb5680	0.030680895
62	0xbd41916f	-0.047257837
63	0x3c9ac811	0.018894227

encoder.2.weight f4 [64, 64]
0	0x3b5f4474	0.00340679
1	0x3d15649f	0.036472913
2	0x3df33555	0.11875407
3	0xbd2dfd3c	-0.04247783
4	0xbe44eacf	-0.19230197
5	0x3d2ab0e9	0.04167262
6	0xbbee26bb	-0.0072678006
7	0xbdcea4f6	-0.100900576
8	0xbdbe2052	-0.09283508
9	0x3dedbd94	0.11608425
10	0xbdc8de3b	-0.09808012
11	0xbbe28c54	-0.006913701
12	0x3deff2ca	0.1171623
13	0x3dcdae31	0.1004299
14	0x3d2b6997	0.041848745
15	0x3df28907	0.11842542
16	0xbc1eee0d	-0.00970031
17	0xbbc0c896	-0.0058832867
18	0x3dee371d	0.11631606
19	0x3d9e4158	0.07727307
20	0x3ce41a3c	0.02784454
21	0x3dd91290	0.10599244
22	0xbb8e9a4c	-0.0043518897
23	0xbd461cf6	-0.048367463
24	0xbdd14cc2	-0.102197185
25	0xbe3a0a8a	-0.18168083
26	0x3c60bd43	0.0137169985
27	0x3dab687b	0.083695374
28	0xbc262729	-0.010141172
29	0x3d47f7ef	0.048820432
30	0x3ca242a8	0.019807175
31	0x3d75a070	0.05996746
32	0xbe1466ba	-0.14492312
33	0x3da5c940	0.08095026
34	0x3d61a16e	0.055085592
35	0x3dcba214	0.09943023
36	0x3cd5ffe8	0.026123002
37	0x3c90044b	0.017580172
38	0xbde2b212	-0.110691205
39	0x3d1a9ff4	0.0377502
40	0x3d4decef	0.050274786
41	0xbd019dbb	-0.031644564
42	0xbcdeb2f6	-0.027184945
43	0x3dadd54b	0.08487948
44	0xbd9d1054	-0.0766913
45	0x3dfe61f0	0.12421024
46	0xbd1a84a4	-0.037724152
47	0xbcff892e	-0.031193342
48	0xbe0445fd	-0.12917323
49	0xbbfba49b	-0.0076795346
50	0x3d02f420	0.031971097
51	0xbe1e1938	-0.15439308
52	0x3c545580	0.012959838
53	0xbc602313	-0.013680237
54	0xbdc6b2d5	-0.09702078
55	0x3e3a311e	0.18182799
56	0x3c86cf38	0.016456231
57	0xbd4d5a29	-0.05013481
58	0x3d729adc	0.059229717
59	0xbda85a40	-0.08220339
60	0x3d92abc8	0.07161671
61	0x3c6be10d	0.014396918
62	0xbe4952bd	-0.19660468
63	0xbdb21a93	-0.08696475
64	0xbdf36260	-0.11883998
65	0xbdc622f2	-0.09674634
66	0xbd6eb5f5	-0.058278996
67	0xbd95e71a	-0.0731947
68	0xbe33b771	-0.17550446
69	0x3c219760	0.009862751
70	0xbbc4fe37	-0.00601175
71	0xbd304566	-0.043034934
72	0x3d378368	0.044803053
73	0xbcf79098	-0.030220315
74	0xbdaeca9f	-0.08534741
75	0xbd51cc38	-0.05122015
76	0x3cf1c520	0.029512942
77	0xbe1eced9	-0.15508594
78	0xbdd8c78e	-0.10584937
79	0xbc1d1a30	-0.009588763
80	0xbcc811e8	-0.0244226
81	0xbca94209	-0.02066137
82	0xbdff88eb	-0.12477287
83	0xbd9e8e76	-0.07742016
84	0xbde43304	-0.11142543
85	0xbdf30db0	-0.11867845
86	0x3d25a350	0.04043895
87	0xbd9e9c38	-0.0774464
88	0x3ced553e	0.02897131
89	0x3dfe0849	0.12403924
90	0xbda58573	-0.08082094
91	0xbd8455c3	-0.0646167
92	0x3d0f9d43	0.035062086
93	0x3d7ba980	0.061440945
94	0x3d2cda04	0.042200103
95	0xbda71b34	-0.081594855
96	0x3dfc24f4	0.12311736
97	0x3bbdd210	0.0057928637
98	0xbdf5355c	-0.11973068
99	0xbdc377b6	-0.095443174
100	0xbd444d08	-0.047925025
101	0x3dd8a9fc	0.10579297
102	0xbda963f3	-0.08271017
103	0x3dca48b0	0.09877145
104	0xbce2b580	-0.027674437
105	0xbc05fc9d	-0.0081779035
106	0x3dc330ae	0.09530769
107	0xbda670d6	-0.081269905
108	0xbd3f4d72	-0.046704717
109	0x3d9ed63c	0.07755706
110	0xbda0aeb4	-0.07845822
111	0x3dfb0b56	0.122580215
112	0xbd33dce0	-0.043911815
113	0xbc0ccb90	-0.008593455
114	0x3dba4129	0.090944596
115	0xbb2de83f	-0.0026536135
116	0x3d7562b0	0.05990857
117	0xbd2d50db	-0.042313438
118	0x3d9bfe24	0.07616833
119	0xbcaff790	-0.021480352
120	0x3dcee72a	0.10102685
121	0x3c677ae0	0.014128417
122	0x3da967ec	0.08271775
123	0x3dd125dc	0.10212299
124	0xbd9067a4	-0.07051018
125	0xbce170c8	-0.027519599
126	0xbd466a9b	-0.04844151
127	0x3d96e676	0.07368176
128	0xbc60a826	-0.013711965
129	0xbddd4745	-0.10804609
130	0xbd2b2a5e	-0.04178845
131	0x3d52f9f0	0.05150789
132	0x3dbd7a6a	0.09251864
133	0xbd3dc405	-0.046329517
134	0xbc9bea0c	-0.0190325
135	0xbd9cf2da	-0.07663508
136	0x3dac1c8a	0.08403881
137	0x3d1100cc	0.03540115
138	0x3c5ec76e	0.013597352
139	0x3d34a0eb	0.044098776
140	0xbd4551c5	-0.048173685
141	0x3cbb273f	0.022845862
142	0x3d334337	0.043765273
143	0x3db3a194	0.08771053
144	0x3d1f4079	0.038879845
145	0x3d8203d2	0.06348385
146	0x3da80eaa	0.08205922
147	0xbc83e9fb	-0.016102782
148	0x3d56e56b	0.052464884
149	0x3ccf3bdd	0.0252971
150	0xbb6c8fdc	-0.003609649
151	0xbcd19410	-0.025583297
152	0xbca1bcb0	-0.019743294
153	0x3ca14cf7	0.01969002
154	0x3d03ab38	0.03214571
155	0x3d027790	0.031852305
156	0x3db14f4f	0.08657705
157	0xbd9c2368	-0.07623941
158	0xbd757b55	-0.05993207
159	0x3df83dda	0.12121172
160	0x3d28d98f	0.041223105
161	0x3d408cb1	0.047009174
162	0xbcd98a50	-0.02655521
163	0xbb1e3ff2	-0.0024147
164	0xbdd546f8	-0.10413927
165	0xbbf2480b	-0.007393842
166	0x3df25b04	0.11833766
167	0xbd5781f7	-0.05261418
168	0x3c1ad519	0.0094502205
169	0xbdc9c6b1	-0.098523505
170	0xbcaba76a	-0.020953853
171	0x3d8cc106	0.06872754
172	0x3ceb6ed4	0.02873937
173	0xbdc236ed	-0.094831325
174	0x3dff9114	0.12478843
175	0x3cf2bdb7	0.029631479
176	0xbd356e29	-0.04429451
177	0xbb99c446	-0.004692587
178	0x3d1726b7	0.036902156
179	0x3c87643d	0.01652729
180	0x3da5ff2e	0.08105312
181	0x3dce4f12	0.10073675
182	0x3c9e0e17	0.019293828
183	0xbd73a5d5	-0.05948432
184	0x3c4a6003	0.012351993
185	0xbca3a0f0	-0.019974202
186	0xba2426a4	-0.00062618614
187	0x3dfa1db6	0.12212698
188	0xbd89bc5e	-0.06725381
189	0x3ddf8d2a	0.10915597
190	0x3db4f714	0.08836189
191	0xbd610b00	-0.05494213
192	0x3db778bb	0.089585744
193	0x3dad68ef	0.0846728
194	0xbcc2d13e	-0.023781415
195	0xbdc04bf8	-0.0938949
196	0xbc8a622d	-0.016892517
197	0xbdd86716	-0.10566537
198	0xbd058f7b	-0.032607537
199	0xbd1289e8	-0.03577605
200	0x3d95b76c	0.073103756
201	0x3ab621b5	0.0013895544
202	0x3c4dcc15	0.012560864
203	0xbdcbbbd0	-0.09947932
204	0xbb2d60a6	-0.0026455312
205	0x3dd41f2c	0.10357508
206	0xbda51523	-0.08060672
207	0x3db86a7c	0.09004685
208	0xbd9d7746	-0.07688765
209	0x3da3ae99	0.07992286
210	0x3cf5625c	0.029954128
211	0x3cb45400	0.02201271
212	0x3ba21259	0.004946035
213	0x3e1a1403	0.15046696
214	0x3dc31c7a	0.09526916
215	0x3c428962	0.011873575
216	0xbdb8154b	-0.08988436
217	0xbe16ce64	-0.1472717
218	0x3d0f5964	0.03499736
219	0x3d6c97ce	0.05776196
220	0xbc13bcec	-0.00901721
221	0x3df0902a	0.11746247
222	0x3c84b0d0	0.016197592
223	0x3d873d6e	0.06603514
224	0xbde7b0ce	-0.1131302
225	0x3d16afd2	0.03678877
226	0xbd9f4505	-0.07776836
227	0xbde8685a	-0.113480285
228	0x3da61562	0.08109547
229	0x3d879efa	0.06622119
230	0x3cc8df24	0.024520464
231	0xbd5b400b	-0.053527873
232	0xbd7d269e	-0.061804406
233	0x3d8bc494	0.06824604
234	0x3d8320f5	0.064027704
235	0x3dc0dc4b	0.094170175
236	0x3d7d8b36	0.06190034
237	0x3b1bdd68	0.0023783091
238	0xbca697c0	-0.020336032
239	0x3c6561d5	0.014000376
240	0xbc249ce1	-0.0100471685
241	0x3dc10ee8	0.09426671
242	0xbba998f9	-0.0051757065
243	0xbe16c71a	-0.14724389
244	0x3dedb8c4	0.11607507
245	0xbd261b92	-0.040553637
246	0xbd10df27	-0.035369065
247	0x3df7ac67	0.1209343
248	0xbb8fd58e	-0.0043894714
249	0x3de2b7f9	0.11070246
250	0xbd77c1e8	-0.060487658
251	0x3d8826d8	0.06648034
252	0x3de91527	0.113809876
253	0x3dba42ac	0.09094748
254	0xbc14a6df	-0.009072988
255	0x3d8e8cfc	0.069604844

encoder.2.bias f4 [64]
0	0xbdd5cc11	-0.10439313
1	0x3d3eb0bb	0.046555262
2	0xbd883753	-0.06651177
3	0x3dacf00e	0.08444224
4	0xbdc1882c	-0.09449801
5	0xbd75f67f	-0.06004953
6	0xbc6cfbee	-0.014464362
7	0x3d3722ab	0.044710796
8	0xbdf0df48	-0.117613375
9	0xbd7cad92	-0.061688967
10	0x3c1713c8	0.009221025
11	0xbd054c8f	-0.032543715
12	0xbdda0b0f	-0.106466405
13	0x3d9fd1f9	0.07803721
14	0xbd2e22d3	-0.04251368
15	0x3d013422	0.03154386
16	0x3d0b2c36	0.03397771
17	0xbd8f0d91	-0.069850095
18	0xbdcbf5d0	-0.099589944
19	0x3c9104ba	0.01770245
20	0xbd9dd2b2	-0.077062026
21	0x3d9f9ff8	0.077941835
22	0xbdabfae3	-0.08397462
23	0xbc99590f	-0.018719224
24	0xbd1b0d3b	-0.037854414
25	0xbb6c0ced	-0.0036018447
26	0x3daaa61c	0.08332464
27	0x3d5e7e48	0.05431965
28	0xbdb82155	-0.089907326
29	0xbd2fc079	-0.042908166
30	0xbdec6cc6	-0.115441844
31	0x3dfd6798	0.123732746
32	0x3bdd7a23	0.0067589446
33	0xbba90a40	-0.0051586926
34	0xbcad2789	-0.021137016
35	0xbd23c2ca	-0.039980687
36	0xbdd8a01a	-0.10577412
37	0xbe129a28	-0.14316618
38	0xbd68a151	-0.05679447
39	0x3dcf4ed0	0.10122454
40	0x3c183c7a	0.0092917625
41	0x3c9a0b3f	0.01880419
42	0xbe1c631d	-0.15272184
43	0x3dd6c846	0.10487418
44	0x3cd56968	0.026051238
45	0xbde6985d	-0.1125953
46	0xbd6ebcf6	-0.058285676
47	0x3b9f382a	0.00485899
48	0xbd851c6e	-0.06499563
49	0x3bd0927d	0.006365119
50	0xbe278a52	-0.16361359
51	0xbd9826a1	-0.07429243
52	0x3d8b80ac	0.068116516
53	0x3d5e1004	0.054214492
54	0xbdd61c1e	-0.10454582
55	0x3d53350e	0.05156427
56	0x3c78ab75	0.015177597
57	0x3bc29d5d	0.0059391693
58	0xbe0318fc	-0.128025
59	0xbdc08c9b	-0.09401818
60	0x3de66b6c	0.11250958
61	0x3dd6d77a	0.10490318
62	0x3db77870	0.089585185
63	0xbda3b8e6	-0.07994251

backcast.weight f4 [20, 64]
0	0x3dd3d240	0.103428364
1	0xbda2bdbc	-0.07946345
2	0xbcd5b730	-0.026088327
3	0x3d9b0672	0.07569589
4	0xbda6d994	-0.081469685
5	0x3d720f1c	0.05909644
6	0x3d969988	0.073535025
7	0x3db5cf72	0.08877458
8	0x3d843410	0.06455243
9	0x3d095724	0.03353037
10	0x3d3f3710	0.04668337
11	0x3dd773a2	0.10520102
12	0xbdee1c4a	-0.116264895
13	0x3a93e980	0.0011284798
14	0xbcb04ca8	-0.021520928
15	0xbcb39138	-0.021919832
16	0xbd5cb4e0	-0.053883433
17	0xbd7081a0	-0.05871737
18	0xbd1d1054	-0.03834565
19	0xbdfd3a4a	-0.123646334
20	0x3d1823bc	0.037143454
21	0xbdf8e10e	-0.12152301
22	0x3d8cb4a6	0.068703935
23	0x3d40eda0	0.047101617
24	0x3c72f5e0	0.014829129
25	0xbdc7b8e2	-0.097520605
26	0xbdb3e1f6	-0.08783333
27	0x3ca8aa10	0.020588905
28	0xbd5fc788	-0.054633647
29	0x3dc34b20	0.09535813
30	0x3de86dfc	0.11349103
31	0x3c8a0228	0.016846731
32	0x3d940fee	0.07229601
33	0x3d9ebd2c	0.077509254
34	0xbdde204c	-0.10846004
35	0xbd685284	-0.056719318
36	0xbc8b66c8	-0.017016783
37	0x3d649278	0.055803746
38	0x3db183e8	0.08667737
39	0x3ddac6d0	0.10682452
40	0xbba19160	-0.00493066
41	0xbd9662b6	-0.07343046
42	0x3d64962c	0.055807278
43	0xbde5cde6	-0.11220913
44	0xbd751548	-0.05983475
45	0x3dfc74f2	0.12326993
46	0xbd0f5c8c	-0.03500037
47	0xbd992906	-0.07478528
48	0x3c612d70	0.013743743
49	0x3d96ff22	0.073728815
50	0xbc4d9380	-0.012547374
51	0x3d77d4dc	0.060505733
52	0x3d9ed91c	0.07756254
53	0xbde1f228	-0.11032516
54	0xbdd7600c	-0.10516366
55	0x3dcd6a70	0.10030067
56	0x3df31946	0.11870055
57	0xbdacb6a6	-0.08433275
58	0x3d271960	0.040795684
59	0xbdb1d6fc	-0.08683583
60	0x3c4c0ba0	0.0124539435
61	0xbdfbc798	-0.12293929
62	0x3dd8ee7c	0.10592362
63	0xbdcf13e0	-0.10111213
64	0x3d8c9f44	0.06866315
65	0x3d20401c	0.03912364
66	0x3d954266	0.07288055
67	0xbcb9d130	-0.022682756
68	0xbdea3848	-0.11436516
69	0xbdd8a11a	-0.10577603
70	0xbc61db80	-0.013785243
71	0xbdf373fc	-0.11887357
72	0xb9710800	-0.00022986531
73	0x3db6ebbe	0.08931683
74	0xbdffab62	-0.124838606
75	0xbdb895fc	-0.09012982
76	0x3b2e9f00	0.0026645064
77	0xbbfcde20	-0.007716909
78	0xbd3fb9a8	-0.046807915
79	0xbd64fd6c	-0.055905744
80	0x3db44eda	0.08804102
81	0xbce1b6b0	-0.027552933
82	0xbd902516	-0.070383236
83	0x3d21f710	0.039542258
84	0x3ba4b9c0	0.005027026
85	0x3c61cf80	0.013782382
86	0x3cc97b10	0.024594814
87	0xbdd6eece	-0.10494767
88	0xbdb2526e	-0.087071285
89	0x3d49cbc0	0.049266577
90	0x3ba9e720	0.005185023
91	0xbdf0f25c	-0.117649764
92	0x3d2e0d04	0.04249288
93	0xbd9addc6	-0.07561831
94	0xbc8756c8	-0.016520873
95	0xbc9a04e0	-0.018801153
96	0x3ce9ebf8	0.028554901
97	0x3b4e46c0	0.0031475276
98	0x3d1a89d4	0.0377291
99	0xbdb8b552	-0.09018959
100	0xbcc22de0	-0.023703516
101	0x3c0c4b70	0.008562908
102	0xbdcb23ce	-0.099189386
103	0xbda2d0f4	-0.07950011
104	0xbdb80fac	-0.08987364
105	0x3dc8e54a	0.098093584
106	0x3dd43eb0	0.10363519
107	0xbdfed202	-0.124423996
108	0x3db8d718	0.09025401
109	0x3ce1a320	0.027543604
110	0x3d961020	0.07327294
111	0xbdfe397a	-0.124133065
112	0xbd2d4bb0	-0.04230851
113	0x3d1e3ec0	0.03863406
114	0x3da968e8	0.082719624
115	0x3d36b940	0.044610262
116	0xbdb5deec	-0.088804096
117	0xbd20baf4	-0.039240792
118	0xbdb9dcf6	-0.09075348
119	0xbd9be2c2	-0.0761161
120	0x3df6d25c	0.120518416
121	0x3dce4f34	0.100737005
122	0xbcc13210	-0.023583442
123	0xbdd4e5fc	-0.103954285
124	0x3d1b3178	0.037888974
125	0x3def4d8c	0.11684713
126	0x3df8c3aa	0.12146695
127	0x3d4ae8dc	0.04953848
128	0xbd6554b0	-0.055988967
129	0xbde9c0ee	-0.114137515
130	0x3cda0778	0.02661489
131	0xbd0654bc	-0.032795653
132	0x3dbcffd8	0.09228486
133	0x3df720aa	0.12066777
134	0x3c6afc80	0.014342427
135	0xbdd08f9c	-0.10183641
136	0x3c965b88	0.018354192
137	0xbdab779a	-0.083724216
138	0xbddd4ffc	-0.108062714
139	0xbd9b621a	-0.07587071
140	0xbc93d290	-0.01804474
141	0x3dd4685a	0.10371466
142	0xbc6c2be0	-0.0144147575
143	0xbdb02366	-0.08600502
144	0x3d2692f4	0.04066749
145	0x3d48a460	0.048984885
146	0xbd9c7b4e	-0.07640706
147	0xbdff9c9c	-0.12481043
148	0x3d958866	0.073014066
149	0x3d022874	0.03177686
150	0x3de83278	0.11337751
151	0x3b8f7a60	0.004378602
152	0xbdc31e8e	-0.09527312
153	0x3cf42a58	0.029805347
154	0x3d1f875c	0.038947448
155	0xbda9b182	-0.0828581
156	0xbcb113c8	-0.021615878
157	0x3d55385c	0.0520557
158	0x3cffb0b0	0.03121218
159	0xbc9e36f0	-0.019313306
160	0xbd10ac8c	-0.035320804
161	0x3df141fc	0.11780164
162	0xbd9d20e2	-0.076722875
163	0x3d4640e4	0.04840173
164	0x3d8459aa	0.064624146
165	0xbdd4c092	-0.10388292
166	0xbce32fe8	-0.027732804
167	0xbd9472fc	-0.07248494
168	0x3dbbd9ec	0.09172425
169	0x3db8dc62	0.0902641
170	0xbd81441c	-0.06311819
171	0xbc4352e0	-0.011921614
172	0x3dd1d154	0.10245004
173	0x3c41b980	0.011824012
174	0x3d691ca4	0.05691208
175	0xbbeedae0	-0.0072892755
176	0xbcb7e4c0	-0.022447944
177	0xbda0372c	-0.07823023
178	0x3d5235b4	0.051320747
179	0x3de1a95e	0.11018632
180	0x3d9c2938	0.07625049
181	0xbdc032f6	-0.0938472
182	0xbdb9ed36	-0.090784475
183	0xbdb9c1b6	-0.090701506
184	0xbd96202e	-0.073303565
185	0x3ba5ddc0	0.005061835
186	0xbdf02b02	-0.11726953
187	0x36a78000	4.991889e-06
188	0xbcb01328	-0.02149351
189	0xbbf92380	-0.007603109
190	0x3dfe00c6	0.12402491
191	0xbd52453c	-0.05133556
192	0x3db8971c	0.09013197
193	0x3cadfdc0	0.021239161
194	0x3d9b151e	0.07572387
195	0x3daae87c	0.08345124
196	0xbd96f718	-0.07371348
197	0x3ddc0a7a	0.10744186
198	0x3db66446	0.089058444
199	0x3dd35e24	0.1032069
200	0xbdc828ac	-0.097733825
201	0x3d8fe384	0.07025817
202	0x3d3e0fd8	0.04640183
203	0xbd3efa54	-0.04662545
204	0xbdc1a55c	-0.09455368
205	0x3d80b9ac	0.06285414
206	0x3d649950	0.055810273
207	0x3c09e350	0.008416012
208	0xbdf6d3ba	-0.120521024
209	0xbda0191a	-0.07817288
210	0x3db1f1b0	0.08688676
211	0x3d122460	0.03567922
212	0xbc993808	-0.018703476
213	0xbd8a0754	-0.06739679
214	0x3d9b5040	0.07583666
215	0xbd0c7bd0	-0.034297764
216	0x3c9676c8	0.018367186
217	0x3de3a7ba	0.11115976
218	0x3dc7ad14	0.09749809
219	0xbcc50780	-0.024051428
220	0xbda0351c	-0.0782263
221	0xbda9478e	-0.08265601
222	0x3d35ae68	0.04435578
223	0x3de195c8	0.11014897
224	0x3d601b9c	0.05471383
225	0x3d808e6e	0.06277166
226	0xbd056a54	-0.032572106
227	0xbddc892e	-0.107683524
228	0xbdae2966	-0.0850399
229	0xbde2623a	-0.110538915
230	0x3dd225ea	0.10261138
231	0xbdab56b6	-0.08366148
232	0x3da115f8	0.07865518
233	0xbdef1918	-0.11674708
234	0xbdbba5fa	-0.09162517
235	0xbd935dac	-0.07195601
236	0xbd3bb350	-0.045825303
237	0xbdbfc9f4	-0.093646914
238	0xbbce7f60	-0.0063018054
239	0x3dcdffc0	0.10058546
240	0xbdc573ec	-0.09641251
241	0xbda66bb4	-0.081260115
242	0xbdd723b0	-0.10504854
243	0xbddb8f5c	-0.10720703
244	0x3d4c9f80	0.0499568
245	0xbd805020	-0.06265283
246	0xbd9efcf4	-0.07763091
247	0x3cef72f0	0.029229611
248	0xbd88985c	-0.06669685
249	0x3dba761c	0.09104559
250	0xbd9c6396	-0.07636182
251	0xbd9ef72a	-0.077619866
252	0xbd4c1550	-0.049825013
253	0xbd430518	-0.04761228
254	0x3dab2926	0.08357458
255	0x3cc5c1e8	0.024140313

backcast.bias f4 [20]
0	0x3df93942	0.12169124
1	0x3b2d1780	0.0026411712
2	0x3d78affc	0.060714707
3	0xbde44160	-0.11145282
4	0x3d6863ac	0.05673568
5	0x3c0e8420	0.008698493
6	0xbcc76c20	-0.02434355
7	0xbd01acfc	-0.03165911
8	0xbd4ad834	-0.049522594
9	0xbd3d16ec	-0.046164438
10	0x3db735be	0.089457974
11	0x3cc72be8	0.024312928
12	0x3c2e2f60	0.010631412
13	0x3ce7c2d0	0.028291136
14	0x3b179c80	0.0023134053
15	0x3da7c31e	0.081915125
16	0x3c2f9ce0	0.010718554
17	0xbd5c6780	-0.053809643
18	0x3d8c1b88	0.06841189
19	0xbd5e1e30	-0.054228008

forecast.weight f4 [1, 64]
0	0xbe205a18	-0.15659368
1	0x3d71c17d	0.059022415
2	0xbb85fb16	-0.0040887697
3	0xbdb08021	-0.08618189
4	0x3c3a16a5	0.011357938
5	0x3dd1e070	0.10247886
6	0xbb06319a	-0.0020476342
7	0xbdcc6841	-0.09980822
8	0xbdabac43	-0.08382466
9	0x3e525c94	0.20543128
10	0x3d8c814e	0.068606004
11	0x3d51cc35	0.051220138
12	0xbc0fc3a9	-0.008774676
13	0xbcfb4086	-0.030670416
14	0x3d6ea736	0.058264934
15	0x3dc569e6	0.09639339
16	0x3c7cb22d	0.01542334
17	0xbd88fdea	-0.06689055
18	0xbd863a1f	-0.065540545
19	0x3d9a095c	0.075213164
20	0xbde47a03	-0.111560844
21	0x3de184ba	0.11011644
22	0xbd18213a	-0.037141062
23	0x3d3745bc	0.04474424
24	0x3d007aa9	0.031366978
25	0xbd4d9b60	-0.050197005
26	0x3dd60908	0.10450941
27	0xbda805a2	-0.082041994
28	0xbd9ba991	-0.076007016
29	0x3c0fd0e3	0.00877783
30	0x3bd604c0	0.006531328
31	0xbdc3c418	-0.09558886
32	0xbd67d569	-0.05660001
33	0x3d2a78fb	0.041619282
34	0xba667c17	-0.00087922945
35	0xbd9fad87	-0.077967696
36	0x3db3033e	0.08740853
37	0xbc6103f6	-0.0137338545
38	0x3cf90c28	0.030401304
39	0xbe1308dc	-0.14358848
40	0x3c87fac1	0.016599061
41	0xbb8b17e6	-0.0042447923
42	0xbd9bea0b	-0.076129995
43	0xbc18aa5a	-0.009317959
44	0x3cdc59af	0.026898233
45	0x3b30d936	0.0026984937
46	0xbb0d8642	-0.0021594916
47	0x3c03f439	0.008053833
48	0xbdcbf186	-0.09958176
49	0xbd6c06b9	-0.0576236
50	0x3c579fdf	0.013160675
51	0x3db98d5e	0.09060167
52	0x3b61ce4d	0.003445524
53	0xbcee6afc	-0.029103749
54	0x3db0d7ab	0.086348854
55	0xbc195b27	-0.009360111
56	0x3dc4c0ae	0.09607063
57	0xbc3ee4c6	-0.0116512235
58	0xbb54b468	-0.0032456163
59	0x3dc4a722	0.096021906
60	0xbd86b388	-0.065772116
61	0xbd637241	-0.055528883
62	0x3da7fdc3	0.08202698
63	0x3dbe9142	0.093050495
